Deep Learning Reconstructions/LGS1_005.pth (torch, 80918 bytes, 7 tensors)

layers.0.weight f4 [32, 2, 3, 3]
0	0xbe4f613e	-0.20251939
1	0x3c14cc9c	0.009081986
2	0xbe5baed5	-0.21453412
3	0x3e2e60b9	0.17029084
4	0x3e5887b6	0.2114552
5	0xbe332003	-0.1749268
6	0x3c40529a	0.011738444
7	0x3e1b8d82	0.151907
8	0x3cc13050	0.023582608
9	0x3f02114b	0.50807637
10	0x3f1cd500	0.6126251
11	0x3ec1b106	0.3783037
12	0xbe43a524	-0.19105965
13	0xbe599ff5	-0.21252425
14	0x3edaf4b4	0.4276482
15	0xbf0d7e63	-0.55270976
16	0xbf096293	-0.5366604
17	0xbef696b9	-0.48161867
18	0xbd959a08	-0.0730477
19	0x3c8995ce	0.016795065
20	0xbc059367	-0.008152819
21	0xbe5075b0	-0.20357394
22	0xbdddae98	-0.10824317
23	0xbe392265	-0.18079527
24	0xbe15450e	-0.14577124
25	0xbe18aaf8	-0.1490897
26	0xbe02bda4	-0.12767655
27	0xbc6a1573	-0.01428734
28	0xbdc29171	-0.09500397
29	0xbdf11f23	-0.11773517
30	0x3d1a0e32	0.037611194
31	0x3e5c29e9	0.21500362
32	0x3e421c62	0.1895614
33	0xbe28c6af	-0.16482042
34	0xbdf1cf15	-0.11807076
35	0x3d9e1b8f	0.077201
36	0x3db4a332	0.088201895
37	0xbde91286	-0.11380486
38	0xbb3a4685	-0.002842338
39	0xbe16bfb3	-0.14721565
40	0x3dd24f6c	0.10269055
41	0xbc3598a2	-0.011083754
42	0x3cd873b0	0.026422352
43	0xbe30acb1	-0.17253377
44	0xbdf3fac8	-0.11913067
45	0xbec270a8	-0.37976575
46	0x3e932abc	0.2874354
47	0xbeb85c2a	-0.36007816
48	0x3e4fba65	0.20285948
49	0x3e437f2a	0.19091478
50	0x3f13f155	0.5779012
51	0xbf4681c2	-0.77541745
52	0xbece509f	-0.40295884
53	0x3f0ac467	0.54205936
54	0x3cbcedb9	0.023062574
55	0xbdbf1c92	-0.09331621
56	0x3dccde1f	0.10003304
57	0x3dc5d1d6	0.09659164
58	0xbe2568d9	-0.16153277
59	0x3cab56f0	0.020915478
60	0x3dbf6ab8	0.09346527
61	0xbd4a16f0	-0.04933828
62	0x3ca8465a	0.020541359
63	0xbec68af4	-0.38777888
64	0xbde405db	-0.11133929
65	0xbe3218c2	-0.17392257
66	0xbd80f01d	-0.06295798
67	0xbefb4fa6	-0.49084204
68	0xbed8d0c5	-0.4234678
69	0xbdb99908	-0.090623915
70	0x3e157f57	0.14599358
71	0xbea1d09c	-0.3160447
72	0x3d92493e	0.07142876
73	0x3e7ce3e1	0.24696304
74	0xbd0b1d48	-0.03396347
75	0x3f023d9a	0.50875247
76	0xbd66feb4	-0.056395248
77	0x3d9b298f	0.07576286
78	0x3e076323	0.13221411
79	0x3dd87f05	0.10571102
80	0xbd831ee7	-0.064023785
81	0x3e29d470	0.16584945
82	0xbe1bbf0c	-0.15209597
83	0x3d8b6126	0.06805639
84	0x3d59d870	0.053184927
85	0x3e4dba29	0.20090546
86	0xbd555bf6	-0.052089654
87	0xbe3209c7	-0.17386542
88	0xbda48a03	-0.08034136
89	0xbdf5a3ad	-0.11994109
90	0x3e2a7b57	0.16648613
91	0xbe0df7d1	-0.13864066
92	0xbb46b74b	-0.0030321653
93	0xbdc2307a	-0.094819024
94	0x3dcdba95	0.10045353
95	0x3dd225cb	0.10261115
96	0x3d7d0e2e	0.0617811
97	0xbc9342fa	-0.017976273
98	0xbda65b72	-0.081229106
99	0x3f31f260	0.6951046
100	0xbe36f3fd	-0.17866512
101	0x3e2cf040	0.16888523
102	0x3f8be9db	1.0930742
103	0xbf795bc9	-0.9740568
104	0xbf7d6b0a	-0.98991454
105	0x3f59281c	0.8482683
106	0xbe3e64bb	-0.18593113
107	0xbf2bfefa	-0.6718594
108	0x3e3f1d09	0.1866342
109	0x3e55873b	0.20852368
110	0x3de9caf2	0.11415662
111	0xbe32871d	-0.17434354
112	0xbce1a255	-0.027543226
113	0x3ddd827e	0.10815905
114	0xbea33265	-0.31874385
115	0xbdc61ae1	-0.096730955
116	0xbc551c11	-0.01300718
117	0xbe01c48d	-0.12672634
118	0xbecae195	-0.3962523
119	0xbec16b18	-0.3777702
120	0xbdf46de4	-0.119350225
121	0x3e41ecc5	0.18937977
122	0xbea29b0b	-0.31758913
123	0x3eee48cb	0.46539912
124	0x3f134733	0.57530516
125	0x3e039930	0.12851405
126	0xbc76394f	-0.015028312
127	0xbe9aec2d	-0.30258313
128	0x3ea4e157	0.3220317
129	0x3e493c10	0.19651818
130	0x3e192afa	0.149578
131	0xbebec13e	-0.37256807
132	0xbe271962	-0.16318277
133	0x3db29cc7	0.08721309
134	0x3dac026d	0.083989
135	0x3ea6c1d0	0.32569742
136	0x3f002682	0.5005876
137	0x3e0394c8	0.12849724
138	0xbb6d688b	-0.0036225643
139	0x3e18612f	0.14880823
140	0x3d8f962a	0.070110634
141	0xbc124b0d	-0.008929026
142	0xbe38039d	-0.17970128
143	0x3d44c029	0.04803482
144	0x3d920887	0.07130533
145	0x3e612ff3	0.21990947
146	0xbe71b472	-0.2360399
147	0x3ecbc499	0.3979843
148	0xbdf19ca2	-0.117974535
149	0xbe32723a	-0.17426386
150	0x3d071146	0.032975458
151	0xbde0c676	-0.109753534
152	0xbdad5293	-0.084630154
153	0xbde3c749	-0.11121995
154	0xbe47075c	-0.19436401
155	0xbd24495b	-0.04010902
156	0xbd11b2cc	-0.035570905
157	0xbe842d26	-0.25815696
158	0xbe2c14ce	-0.16804811
159	0x3eac42ed	0.3364481
160	0x3e1c39e2	0.15256456
161	0x3e94fdb1	0.290998
162	0xbe6622ff	-0.22474287
163	0xbe0a1e24	-0.1348806
164	0x3d99cab6	0.07509367
165	0x3e755ac4	0.23960406
166	0xbd403cc3	-0.046932947
167	0xbcc9b599	-0.024622725
168	0x3d07a189	0.033113036
169	0xbd0091bb	-0.03138898
170	0x3cc7c8ad	0.024387682
171	0xbf3fcd6b	-0.7492282
172	0xbf4f8557	-0.81062835
173	0x3d309284	0.04310848
174	0xbebe64e7	-0.37186357
175	0xbe2b2b2e	-0.1671569
176	0x3eccdad5	0.40010706
177	0x3e9bdcbc	0.30441844
178	0x3f5fb165	0.8738006
179	0x3e7e3f0b	0.24828736
180	0x3cf888b0	0.030338615
181	0xbe76f914	-0.24118453
182	0x3e6bd6d7	0.23031174
183	0x3e16826a	0.14698187
184	0xbea14155	-0.31495157
185	0x3debb0a1	0.11508299
186	0xbdc5eb4a	-0.096640185
187	0x3cdac88a	0.026706953
188	0x3dca9af5	0.09892837
189	0x3f00ee44	0.50363564
190	0xbdc69fc9	-0.09698445
191	0xbd8f82f7	-0.070074014
192	0xbf37385b	-0.71570367
193	0xbf29652e	-0.6617001
194	0x3e2c01b6	0.16797528
195	0x3eeeb0dd	0.4661931
196	0x3ced2a3f	0.028950809
197	0x3e039025	0.12847956
198	0x3ce81c46	0.028333794
199	0xbd70f075	-0.058823068
200	0xbe63f365	-0.22260816
201	0x3e8e7ec4	0.2783109
202	0x3eb13893	0.34613475
203	0xbe92fb3d	-0.28707305
204	0xbb4ccacb	-0.0031248804
205	0xbd9693a6	-0.073523805
206	0x3de94bd8	0.11391419
207	0x3d5a1fc6	0.053252958
208	0x3e8b66e9	0.27226952
209	0x3ed6c6cf	0.41948554
210	0xbe9a306b	-0.30115065
211	0xbdf3d3dd	-0.11905644
212	0x3e67a58a	0.22621742
213	0xbea918f7	-0.3302686
214	0x3d07bd97	0.03313979
215	0xbe017005	-0.12640388
216	0xbd37a44c	-0.04483442
217	0x3e0771d1	0.13227011
218	0xbdef4540	-0.1168313
219	0x3d4fbf67	0.050719645
220	0xbe1e35ee	-0.1545026
221	0x3e0ec7a8	0.1394335
222	0xbd36ea33	-0.044656944
223	0x3d7e99ed	0.062158514
224	0xbbf10e12	-0.0073564136
225	0xbee93615	-0.45549074
226	0xbea3a091	-0.3195844
227	0x3f0497bf	0.51794046
228	0xbee34556	-0.44388837
229	0xbf6d15b0	-0.9261122
230	0xbe895771	-0.26824525
231	0x3f2d331a	0.676561
232	0x3ebbc798	0.36675715
233	0x3f1e8f87	0.61937755
234	0x3e0ab72e	0.1354644
235	0xbf1c2505	-0.6099399
236	0xbf81d91b	-1.014438
237	0x3da69a25	0.081348695
238	0xbe7a11bb	-0.24420826
239	0xbd6166b5	-0.05502959
240	0xbcbf8744	-0.02337993
241	0x3d5b95a6	0.053609513
242	0x3da2214d	0.07916508
243	0x3dcbd7c1	0.09953261
244	0x3f258858	0.6466117
245	0x3f36ed1f	0.7145557
246	0xbeb910fb	-0.36145768
247	0x3eb30db1	0.34971383
248	0x3f019624	0.5061972
249	0xbe820f43	-0.2540227
250	0xbf011276	-0.50418794
251	0xbda9d8b5	-0.08293287
252	0x3ba8e578	0.005154308
253	0x3eaff7a2	0.34368616
254	0x3e6291a9	0.22125877
255	0xbe2ce225	-0.16883142

layers.0.bias f4 [32]
0	0x3d51d08c	0.051224276
1	0xbe0935d7	-0.13399445
2	0x3e3159a0	0.17319345
3	0xbc4126a6	-0.011789
4	0xbf03d426	-0.5149559
5	0x3d2316c0	0.039816618
6	0xbc48fe39	-0.012267643
7	0x3d24f817	0.04027566
8	0x3c78d482	0.015187385
9	0x3df999ed	0.12187562
10	0x3d62492a	0.055245556
11	0xbd503c0a	-0.050838508
12	0x3cc0a847	0.02351774
13	0x3e2d2b9f	0.16911171
14	0x3cfa6fd7	0.030570908
15	0x3cecc219	0.028901147
16	0xbed7158d	-0.4200863
17	0x3cd0573f	0.025432227
18	0x3c062429	0.008187332
19	0x3d358934	0.0443203
20	0x3d2c7514	0.042103842
21	0xbe870a5f	-0.263751
22	0x3da5812e	0.0808128
23	0x3e4955d3	0.19661646
24	0x3d95a241	0.07306338
25	0x3df83f2b	0.12121423
26	0x3d1850a5	0.037186284
27	0xbd9571e7	-0.07297116
28	0xbc2f51bd	-0.01070064
29	0x3d99b34c	0.07504901
30	0x3d517d4a	0.051144876
31	0x3d5653b1	0.052325908

layers.2.weight f4 [32, 32, 3, 3]
0	0xbba698b5	-0.005084122
1	0x3a96ac80	0.0011495501
2	0x3c6f0eb4	0.014590908
3	0xbe2ab5b6	-0.1667088
4	0x3dcbdd94	0.09954372
5	0x3d053cae	0.03252857
6	0xbd2c16a8	-0.042013794
7	0x3d33b8d3	0.043877434
8	0xbe40c721	-0.18825962
9	0x3d4fab72	0.050700612
10	0x3d615172	0.055009313
11	0xbd083118	-0.033249944
12	0xbc124cb9	-0.008929425
13	0x3cf3d79b	0.029765895
14	0xbd4b0a78	-0.04957053
15	0x3c5232f3	0.01282953
16	0xbbce26f8	-0.0062912665
17	0xbd46636b	-0.048434656
18	0xbe1f1f62	-0.15539315
19	0xbd32b3c2	-0.04362846
20	0xbd8490e7	-0.064729504
21	0x3c84a2e3	0.016190952
22	0x3e45ce9f	0.19317101
23	0xbec4047d	-0.38284674
24	0x3d2ea70a	0.04263977
25	0xbe681229	-0.22663178
26	0x3ab9203f	0.001412399
27	0xbb478ac7	-0.0030447708
28	0xbdaca97b	-0.08430763
29	0x3b06020f	0.0020448004
30	0xbaa4c791	-0.0012571682
31	0x3d61369b	0.054983716
32	0xbb498db4	-0.0030754628
33	0x3cf602f0	0.030030698
34	0xbd719145	-0.05897643
35	0x3c48620c	0.012230407
36	0xbf064553	-0.5244953
37	0xbe845021	-0.25842384
38	0xbeeb4e66	-0.4595825
39	0xbe54f5ac	-0.20796841
40	0x3eefc7cb	0.46832117
41	0x3eee9b5f	0.46602914
42	0xbe9c181f	-0.30487153
43	0xbeab4286	-0.3344919
44	0xbe46a121	-0.19397403
45	0xbb9d2838	-0.004796054
46	0x3d3e5846	0.046470903
47	0xbdc3a507	-0.09552961
48	0x3e446d2e	0.19182274
49	0x3e9f87e5	0.31158367
50	0xbe5073ac	-0.20356625
51	0xbe891159	-0.26771048
52	0x3b6ec18c	0.003643128
53	0x3d43f486	0.047840618
54	0xbe0925cb	-0.13393323
55	0xbaa884bf	-0.0012856944
56	0xbe960ef8	-0.29308295
57	0x3e10442c	0.14088506
58	0x3cf54be2	0.02994341
59	0xbcc76dc3	-0.02434433
60	0x3e068c31	0.13139416
61	0x3e35b361	0.17744209
62	0x3e9066b6	0.28203362
63	0x3ca3fff8	0.020019516
64	0x3e1dae66	0.15398559
65	0x3de1863f	0.110119335
66	0x3d4a631f	0.049410935
67	0x3d065835	0.032798965
68	0x3ddde577	0.108347826
69	0x3e405ea5	0.18786104
70	0xbcde2352	-0.027116451
71	0x3d6fd8e1	0.05855644
72	0xbe12447e	-0.1428394
73	0xbacfc480	-0.0015851408
74	0xbe4ee141	-0.20203115
75	0x3dc17808	0.09446722
76	0x3cc017ef	0.023448912
77	0xbd082b8d	-0.03324466
78	0xbd2ff6c0	-0.04295993
79	0x3d8dcd44	0.06923917
80	0xbdcaae64	-0.098965436
81	0x3c581a1f	0.0131898215
82	0xbdb5751b	-0.08860227
83	0xbd214883	-0.039375793
84	0x3c2db679	0.010602587
85	0x3df08c10	0.11745465
86	0x3e3a6361	0.18201973
87	0xbbf629d9	-0.007512313
88	0x3d32be40	0.043638468
89	0xbdfca7b5	-0.12336675
90	0x3cb7e814	0.02244953
91	0x3d361975	0.04445787
92	0xbc6e5d25	-0.014548575
93	0xbd5b374d	-0.053519536
94	0xbe16434a	-0.14674106
95	0x3e2a78e1	0.16647674
96	0x3dfa1f24	0.12212971
97	0xbe27d73d	-0.163907
98	0xbdb03ce3	-0.08605363
99	0xbe04afc7	-0.12957679
100	0x3be03fd2	0.0068435455
101	0x3e2e5ae8	0.17026865
102	0xbcbf3a99	-0.023343371
103	0x3d2a4a0f	0.041574534
104	0x3d8eb4dd	0.06968091
105	0x3c855d5c	0.016279869
106	0xbd96297c	-0.07332131
107	0xbd3349ca	-0.043771543
108	0xbd1ab414	-0.037769392
109	0x3daaa85c	0.08332893
110	0xbd87cdaa	-0.06631024
111	0x3dfbd5c4	0.12296632
112	0x3dad8ce1	0.08474136
113	0x3c98f4fc	0.018671505
114	0xbe056e54	-0.13030368
115	0x3dc05032	0.09390296
116	0xbc0af15d	-0.008480397
117	0x3e39e7a1	0.18154766
118	0x3ea99c69	0.33127144
119	0x3ca3f8a0	0.020016015
120	0xbd422c78	-0.04740569
121	0x3e521114	0.20514327
122	0x3ea104f5	0.31449094
123	0xbf4df07f	-0.8044509
124	0xbeca438b	-0.39504656
125	0x3e8b7b0b	0.27242312
126	0x3c230731	0.009950445
127	0x3ddf1195	0.108920254
128	0x3d53174f	0.0515359
129	0xbc0234fe	-0.007947205
130	0xbe29ff6f	-0.16601346
131	0x3d62ae40	0.05534196
132	0xbe34ea51	-0.1766751
133	0xbd5b4f76	-0.053542577
134	0xbcabc6a5	-0.020968745
135	0xbd57cb91	-0.05268437
136	0xbdcac648	-0.099011004
137	0x3e6ef60e	0.2333605
138	0x3d9f4dca	0.07778509
139	0x3d530a37	0.051523414
140	0xbdb3d9b7	-0.0878176
141	0xbd996db3	-0.074916266
142	0x3dc345c4	0.09534791
143	0xbe378b15	-0.1792415
144	0xbe2df44c	-0.16987723
145	0xbee58066	-0.44824523
146	0x3f6069b4	0.8766129
147	0xbe1d15c8	-0.1534034
148	0xbee19b37	-0.44063732
149	0xbea50585	-0.32230774
150	0x3d0d6a32	0.034525104
151	0xbd8b1f29	-0.06793053
152	0xbe176df4	-0.14788038
153	0xbde721af	-0.112857215
154	0xbe3dd9b9	-0.18540086
155	0x3c9f8668	0.01947327
156	0x3c935d04	0.01798869
157	0xbdd4f969	-0.10399134
158	0x3da537a6	0.08067255
159	0xbe2210a5	-0.15826662
160	0xbed535b6	-0.4164254
161	0xbda64c26	-0.08119993
162	0xbe825e01	-0.25462344
163	0x3de172d4	0.1100823
164	0x3e28869a	0.16457596
165	0xbd380148	-0.044923097
166	0x3d6792d5	0.056536514
167	0x3de234a5	0.110451974
168	0x3d5b30fe	0.05351352
169	0x3da30307	0.07959562
170	0xbde668a3	-0.112504266
171	0x3d3886ac	0.045050308
172	0xbe015fd2	-0.12634209
173	0x3c1a6c66	0.009425258
174	0xbdd39ac5	-0.10332254
175	0x3d46bb4e	0.04851847
176	0x3d5c8b89	0.05384401
177	0x3d81b050	0.06332457
178	0x3d1dde27	0.03854194
179	0xbe24742f	-0.16059946
180	0xbdb44752	-0.08802666
181	0x3de27638	0.11057705
182	0x3e022d95	0.127127
183	0x3e32d575	0.1746424
184	0xbe083721	-0.1330228
185	0x3d930e27	0.07180434
186	0x3ea3b665	0.31975093
187	0x3e1c5999	0.15268554
188	0x3da35c09	0.07976539
189	0x3e882b51	0.26595548
190	0x3e6938ef	0.22775625
191	0xbcc50aa5	-0.024052927
192	0x3df92ad6	0.121663734
193	0x3e4ab743	0.19796471
194	0xbd8ffdaa	-0.070308045
195	0x3cca21a7	0.02467425
196	0xbe3ad591	-0.18245532
197	0xbdf51ff7	-0.119689874
198	0xbd980d8b	-0.07424458
199	0x3df8cbc3	0.121482395
200	0xbd14a14c	-0.036286637
201	0xbe5ac67d	-0.2136478
202	0x3d3514b1	0.044209186
203	0x3d42f90a	0.047600783
204	0xbcf95c84	-0.030439623
205	0x3e4c2f6f	0.1993997
206	0x3d110a8d	0.035410453
207	0x3d0cd5fa	0.03438375
208	0xbe8958ec	-0.26825655
209	0x3da8a59d	0.08234713
210	0xbd25c4dc	-0.040470943
211	0xbf8c39f8	-1.0955191
212	0xbf4677f0	-0.7752676
213	0x3e9948c3	0.29938325
214	0x3ef1300f	0.47106978
215	0x3e463329	0.19355454
216	0x3e123971	0.14279725
217	0xbb999e33	-0.0046880483
218	0x3b3e6bb1	0.0029055888
219	0xbde0da1b	-0.109791
220	0x3d216160	0.039399505
221	0xbd2b0d8d	-0.04176097
222	0xbd459b3c	-0.048243746
223	0x3d6a0fee	0.057144098
224	0x3bb22bec	0.005437365
225	0xbd4768d9	-0.048683975
226	0x3dae4721	0.085096605
227	0x3ddab37e	0.10678767
228	0x3e543cd7	0.20726334
229	0x3df30d86	0.11867814
230	0x3d7e7844	0.062126413
231	0xbdb65862	-0.089035764
232	0x3d6bf70c	0.05760865
233	0xbe5ab71e	-0.21358916
234	0x3c6a9f9b	0.0143202795
235	0xbbacd479	-0.005274352
236	0xbdf857ef	-0.12126147
237	0x3dc042ee	0.09387766
238	0x3dc0e87f	0.09419345
239	0x3e42bcbb	0.19017307
240	0xbd06c039	-0.03289816
241	0xbcb8e798	-0.02257137
242	0x3d7e394b	0.062066358
243	0xbd043958	-0.03228125
244	0x3cba5909	0.022747533
245	0xbe05621f	-0.13025711
246	0x3dd33d85	0.10314468
247	0x3e27f960	0.16403723
248	0x3db7a759	0.08967466
249	0x3db61e85	0.0889254
250	0x3cd097a7	0.025462938
251	0xbd9d1f08	-0.07671934
252	0xbd075d14	-0.03304775
253	0xbe3d742d	-0.18501349
254	0xbc0419da	-0.008062804
255	0x3dea905a	0.11453314

layers.2.bias f4 [32]
0	0x3cafff1a	0.021483947
1	0xbbde0e3f	-0.0067766006
2	0x3d2a0150	0.041505158
3	0x3a82b4f9	0.0009972147
4	0xbb85eb9e	-0.0040869256
5	0x3db53f68	0.088499844
6	0x3c9b3583	0.018946415
7	0x3d63e6e3	0.055640113
8	0x3d89e2d3	0.067327164
9	0xbc4e91a8	-0.012607969
10	0x3d096cc0	0.033550978
11	0xbd605acd	-0.054774094
12	0x3d312d68	0.043256193
13	0x3d0582c5	0.032595415
14	0x3dbb488e	0.09144698
15	0xbda1951e	-0.0788977
16	0xbca4b75a	-0.02010696
17	0xbd923c1a	-0.0714037
18	0xbd813485	-0.063088454
19	0x3db896a1	0.09013105
20	0x3d97e898	0.074174106
21	0x3c48f81c	0.012266185
22	0xbcdfd6b8	-0.027324066
23	0xbd93a73b	-0.07209631
24	0xbd217633	-0.039419364
25	0x3d40e2c3	0.047091257
26	0xbcf09ca8	-0.029371575
27	0xbd8dccb9	-0.069238134
28	0x3cb0aed7	0.021567745
29	0x3da0c8df	0.07850813
30	0x3d3a5cf4	0.045498803
31	0xbc965713	-0.018352067

layers.4.weight f4 [32, 32, 3, 3]
0	0xbd798179	-0.06091449
1	0xbe12e256	-0.14344153
2	0x3da6f6fd	0.08152578
3	0xbb1afc7d	-0.002364903
4	0x3dbd7458	0.092507064
5	0xbb0ae94e	-0.002119619
6	0x3d25b475	0.0404553
7	0xbc7ffa87	-0.015623695
8	0x3c525e37	0.012839845
9	0xbb9d5d8e	-0.0048024124
10	0x3d35d487	0.044392135
11	0x3d3ca70b	0.046057742
12	0xbd0158ba	-0.031578757
13	0x3ca9e315	0.020738164
14	0x3cce3c60	0.025175273
15	0xbd636419	-0.055515382
16	0x3d5ace8c	0.053419635
17	0xbb5e6b0f	-0.0033938324
18	0xbd638841	-0.055549864
19	0x3e11bd56	0.14232382
20	0xbd25e8f6	-0.040505372
21	0xbb9277c5	-0.004469844
22	0x3d8f98ae	0.07011543
23	0x3cdcd64a	0.02695765
24	0x3dc7de4a	0.09759195
25	0xbd80c6f9	-0.06287951
26	0x3bbce70a	0.0057648467
27	0x3d7cc77e	0.061713688
28	0x3d7a70c7	0.06114271
29	0xbdf06e8e	-0.11739837
30	0x3d069466	0.032856368
31	0xbc1b8b63	-0.009493682
32	0xbe08f2f1	-0.13373925
33	0xbd876864	-0.06611708
34	0xbde8b5e9	-0.113628216
35	0x3e0e588b	0.13900964
36	0x3d4bdd6d	0.049771715
37	0x3e03f618	0.12886846
38	0xbb58b142	-0.0033064638
39	0x3e435ed2	0.1907914
40	0xbd2c68d6	-0.042092167
41	0xbe4198d2	-0.18905953
42	0xbdbaff4a	-0.09130724
43	0x3e5d7faf	0.21630739
44	0xbe25a107	-0.16174708
45	0x3e0b6129	0.13611282
46	0xbc9d5ac7	-0.019208325
47	0xbdd3408d	-0.103150465
48	0x3e09adda	0.13445225
49	0x3da0776a	0.078352764
50	0xbe81d11d	-0.25354853
51	0x3e512a56	0.20426306
52	0xbdc1523d	-0.09439514
53	0xbc53ea12	-0.012934225
54	0x3c5d2531	0.013497637
55	0xbc90da53	-0.01768223
56	0x3bb62f6c	0.0055598523
57	0x3cfaa6cf	0.030597119
58	0xba8425ae	-0.001008203
59	0xbccfbf6e	-0.025359835
60	0x3d873cf1	0.066034205
61	0xbd00b49c	-0.031422243
62	0xbb998480	-0.0046849847
63	0x3e3e9c43	0.18614297
64	0xbd276782	-0.040870197
65	0xbe76d529	-0.24104752
66	0xbd8db873	-0.069199465
67	0xbe7eec19	-0.24894752
68	0xbea98798	-0.33111262
69	0xbde8fc9a	-0.11376305
70	0xbdbb6c42	-0.09151508
71	0xbed4d95d	-0.41572085
72	0x3d7e8c2b	0.062145393
73	0x3c7d0512	0.015443103
74	0xbe41b7a1	-0.18917705
75	0xbcd20ede	-0.025641855
76	0x3e06d955	0.13168843
77	0xbe80f282	-0.2518502
78	0x3cbe7eaf	0.023253767
79	0xbe5717e2	-0.21005204
80	0x3dbfb41e	0.093605265
81	0xbd3f8220	-0.046754956
82	0xbd6afa58	-0.057367653
83	0x3ddea253	0.10870805
84	0x3d30550d	0.04304986
85	0x3c6adfb4	0.014335562
86	0x3e4577d5	0.19283994
87	0x3c609ab3	0.013708758
88	0x3c66b931	0.014082239
89	0x3c1439e2	0.009047003
90	0xbdb62830	-0.08894384
91	0x3dadfa19	0.08494968
92	0x3c5fa039	0.01364904
93	0x3e06fca3	0.13182311
94	0x3cf6d1ab	0.030129274
95	0xbd437ecd	-0.04772835
96	0xbdd6baba	-0.10484834
97	0x3d396197	0.045259085
98	0x3cf49b3f	0.029859183
99	0x3d5f9dbe	0.054593794
100	0x3e2f5958	0.17123926
101	0x3f1be365	0.6089385
102	0x3e675ce0	0.22594023
103	0xbd9e2a5a	-0.07722922
104	0x3ed3056a	0.41215068
105	0xbb2c0ede	-0.0026253979
106	0x3e23f15a	0.16010037
107	0xbe0be45e	-0.13661334
108	0xbc743ae8	-0.0149066225
109	0xbd080404	-0.033206955
110	0x3cf793d9	0.030221866
111	0xbd5be2d7	-0.05368313
112	0x3dd3608e	0.10321151
113	0xbde2f747	-0.11082321
114	0xbda3d285	-0.07999138
115	0x3d5f55f2	0.054525323
116	0x3c0ed7a5	0.008718406
117	0xbdd0e3d2	-0.10199703
118	0x3dcc0f9f	0.09963917
119	0xbc8da89e	-0.017292317
120	0xbd6a97fa	-0.057273842
121	0xbed1b93e	-0.4096164
122	0x3e2ebb7c	0.17063707
123	0x3cffd9a5	0.03123171
124	0x3e3117c2	0.17294219
125	0xbe120607	-0.14260112
126	0x3d183e46	0.037168764
127	0xbda4260d	-0.0801507
128	0xbdee4bc5	-0.11635546
129	0xbe28e10f	-0.16492103
130	0x3e920d3a	0.28525716
131	0xbd68b927	-0.0568172
132	0x3e182c78	0.14860713
133	0xbeb6e54f	-0.35721824
134	0x3e3f9362	0.18708566
135	0x3a1d1095	0.00059915456
136	0x3c84e5e1	0.016222896
137	0xbe64964b	-0.22322957
138	0x3df03cd6	0.117303535
139	0x3c4aef27	0.01238612
140	0xbdbb835a	-0.09155913
141	0x3dade013	0.084900044
142	0x3e0824a0	0.13295221
143	0x3dc594c8	0.096475184
144	0xbd7612ba	-0.060076453
145	0xbe1fae3b	-0.15593807
146	0x3e121e0e	0.14269277
147	0xbc6ed9e2	-0.0145783145
148	0x3e6e6e15	0.2328418
149	0xbe3ec9b6	-0.18631634
150	0xbcf4fa58	-0.02990453
151	0xbe50f5c7	-0.20406257
152	0x3e02e4bb	0.12782566
153	0x3cdc5bad	0.026899183
154	0x3e43cb09	0.1912042
155	0xbd8df811	-0.069320805
156	0xbda6bf1b	-0.08141919
157	0x3eb9c86a	0.36285716
158	0xbe73e9cc	-0.23819655
159	0xbd83575b	-0.06413146
160	0xbe64aba9	-0.22331108
161	0x3e11f1cf	0.14252399
162	0xbe03132a	-0.1280028
163	0x3d80d133	0.062899016
164	0x3e8b0501	0.27152255
165	0x3cbfbe4a	0.023406167
166	0xbe7dec7a	-0.2479724
167	0x3e86dd93	0.26340923
168	0x3d998b79	0.074973054
169	0x3e1235f7	0.14278398
170	0xbe4fa2af	-0.20276903
171	0xbd48ad32	-0.048993297
172	0xbd2f7466	-0.042835616
173	0xbc316caa	-0.01082913
174	0x3ddce199	0.10785217
175	0x3d3affd3	0.04565413
176	0xbe61f290	-0.22065187
177	0xbd8c0acc	-0.06837997
178	0x3e2429e5	0.16031606
179	0x3c946f96	0.018119615
180	0x3b82c3db	0.003990633
181	0xbd141e1c	-0.036161527
182	0x3e737d58	0.23778284
183	0xbe2fb9f2	-0.17160776
184	0x3e796509	0.24354948
185	0x3ccc239c	0.024919324
186	0x3e837850	0.2567773
187	0x3cc43fa2	0.023956124
188	0xbdac2acc	-0.084066
189	0x3d1457b2	0.036216445
190	0x3e3f7aea	0.18699232
191	0x3de89d1c	0.11358091
192	0x3e25d28d	0.161936
193	0xbebe49ac	-0.37165582
194	0x3eac5fbf	0.33666798
195	0xbd49cf0a	-0.049269713
196	0x3af556f9	0.0018717936
197	0x3bde5e48	0.0067861415
198	0x3d2ab276	0.0416741
199	0x3e572783	0.21011166
200	0x3c5a82a7	0.013336814
201	0x3b629b19	0.0034577309
202	0x3d21dbf3	0.0395164
203	0xbe4a2c66	-0.19743499
204	0x3ddcd433	0.10782661
205	0xbe334e18	-0.17510259
206	0x3e805b13	0.25069484
207	0xbcbdf26b	-0.023186883
208	0x3cf92205	0.03041173
209	0x3d4fd477	0.05073973
210	0x3d5a3933	0.053277206
211	0xbc3db4d9	-0.011578762
212	0xbb342837	-0.002748979
213	0x3c9183bf	0.017763017
214	0xbd1ff3d0	-0.039050877
215	0x3cf2747e	0.029596563
216	0x3e996c9a	0.2996567
217	0x3e1a9b8b	0.15098397
218	0x3e000122	0.12500432
219	0x3cc987ce	0.02460089
220	0xbce88717	-0.028384728
221	0x3f195ebe	0.5991019
222	0xbd182fa6	-0.037154816
223	0x3e92f2a6	0.2870075
224	0x3e804113	0.25049648
225	0xbce63192	-0.028099809
226	0xbb081324	-0.0020763362
227	0xbcc2402c	-0.02371224
228	0xbd663ffc	-0.056213364
229	0x3daefb3a	0.085440114
230	0x3b8443ef	0.0040364186
231	0xbcc74f5d	-0.024329836
232	0x3cc33ff2	0.023834202
233	0x3d00724c	0.031359002
234	0xbd740cfd	-0.0595827
235	0xbc13831c	-0.009003427
236	0x3d3b354e	0.045705132
237	0x3ca22025	0.019790718
238	0x3cb2ff31	0.0218502
239	0x3e045493	0.12922888
240	0x3bcc7886	0.0062399535
241	0x3d0f903a	0.035049655
242	0xbd6a971a	-0.057273008
243	0x3e0916b3	0.13387565
244	0xbd26c631	-0.040716354
245	0x3dfc1d3e	0.12310265
246	0x3c0ce852	0.008600311
247	0x3db5f4a0	0.08884549
248	0x3e35f348	0.17768586
249	0x3d4d7349	0.050158773
250	0xbdeb6779	-0.11494345
251	0x3dc39580	0.09549999
252	0x3d7b9cfa	0.061429
253	0xbd9f4153	-0.077761315
254	0x3de41c7a	0.11138244
255	0xbd35436f	-0.044253763

layers.4.bias f4 [32]
0	0x3dfc9968	0.123339474
1	0x3cfe0b84	0.03101135
2	0xbd806541	-0.06269313
3	0xbd8d5509	-0.06900985
4	0xbd9dc95d	-0.077044226
5	0x3d1ef712	0.038809843
6	0x3de6c12d	0.11267314
7	0x3e5b39c2	0.21408752
8	0xbdefa6a0	-0.11701703
9	0x3d0cc53a	0.034367777
10	0xbe25d069	-0.16192783
11	0x3d226859	0.039650295
12	0x3cca3b8b	0.024686595
13	0x3e0dc985	0.13846405
14	0x3d5cf575	0.053945024
15	0xbcf2bd56	-0.029631298
16	0xbc0bae90	-0.008525506
17	0x3e18a3b8	0.14906204
18	0xbc2c0d61	-0.010501237
19	0xbe1a21dd	-0.1505198
20	0xbe00f3fa	-0.1259307
21	0xbdb5360b	-0.088481985
22	0x3e011d16	0.12608752
23	0xbd36c4e2	-0.044621356
24	0xbd90adba	-0.07064386
25	0xbd9f55f3	-0.077800654
26	0xbd0506b9	-0.032477114
27	0x3dc92a65	0.09822539
28	0xbe1a94d6	-0.15095839
29	0xbdafe24e	-0.08588086
30	0xb9edcfb6	-0.0004535892
31	0x3d717aad	0.058954883

layers.6.weight f4 [1, 32, 3, 3]
0	0x3e095cc8	0.134143
1	0xbe21a09f	-0.15783928
2	0x3d76f7ec	0.06029503
3	0xbe38153d	-0.17976852
4	0x3e33d92d	0.17563315
5	0xbc6ff053	-0.0146447
6	0xbd8597c7	-0.0652309
7	0xbbb8f12e	-0.0056439852
8	0x3d25a3e5	0.040439505
9	0x3c3b7af9	0.011442893
10	0x3d9e0844	0.0771642
11	0xbb642d00	-0.003481686
12	0xbc307ae9	-0.010771492
13	0xbe44f0bd	-0.1923246
14	0xbdc97ffd	-0.09838865
15	0x3d241a8c	0.04006438
16	0x3e100828	0.14065611
17	0xbcf4bd67	-0.02987547
18	0x3e221c73	0.15831165
19	0xbe3ece45	-0.18633373
20	0x3ba351cc	0.004984116
21	0x3df0a525	0.11750249
22	0xbecd7f80	-0.40136337
23	0xbcd797bf	-0.026317475
24	0x3d8ebcf5	0.069696344
25	0x3e048ca9	0.12944283
26	0xbd1d5881	-0.038414482
27	0x3d5f693a	0.05454371
28	0xbdedafd4	-0.11605802
29	0xbc90303d	-0.017601127
30	0xbddc0b7f	-0.1074438
31	0x3e4dabd6	0.20085081
32	0xbd50996e	-0.050927572
33	0x3e266d16	0.1625255
34	0x3dd6b1d4	0.10483137
35	0xbe136ccd	-0.14396973
36	0x3c513b40	0.012770474
37	0x3cb7928d	0.022408748
38	0x3e92049d	0.28519145
39	0xbd1b44ac	-0.037907287
40	0xbd97ce5e	-0.07412408
41	0xbe4ef919	-0.2021221
42	0xbd0053b6	-0.031329833
43	0x3bfca6ae	0.0077102995
44	0x3d3f2c98	0.046673387
45	0x3d14852d	0.03625982
46	0x3e07b80a	0.13253799
47	0x3e050165	0.12988813
48	0xbd2ff7da	-0.04296098
49	0xbd444dd8	-0.0479258
50	0xbb748ba8	-0.0037314687
51	0xbd93fdff	-0.0722618
52	0x3e0478e6	0.12936744
53	0xbe77772f	-0.24166559
54	0xbd7cdf62	-0.061736472
55	0xbe506032	-0.20349196
56	0xbd474664	-0.048651114
57	0xbd63ad30	-0.055585086
58	0x3ebb4db4	0.3658272
59	0xbe1fe1c1	-0.15613462
60	0xbd0167ec	-0.03159325
61	0xbc916dbb	-0.017752519
62	0xbd10a360	-0.035312057
63	0xbd19e1c0	-0.037568808
64	0xbcf891e4	-0.030343004
65	0x3d8a6fa9	0.06759579
66	0xbe19ef83	-0.15032773
67	0xbd4c5262	-0.049883254
68	0x3da50af5	0.080587305
69	0xbdf7779f	-0.12083363
70	0x3d0a56e1	0.03377426
71	0x3e00a746	0.1256381
72	0xbbf0e9f1	-0.0073521067
73	0xbd30061b	-0.042974573
74	0x3dc9b198	0.098483264
75	0xbd5d5b4d	-0.05404215
76	0x3da12402	0.07868196
77	0xbc818d22	-0.015814368
78	0x3cf1b2f8	0.029504284
79	0xb9fcfc00	-0.0004825294
80	0x3d38b1b4	0.045091346
81	0xbc80a34d	-0.015702868
82	0x3e2be04f	0.16784786
83	0xbcc1aae8	-0.023641065
84	0x3d5822ac	0.05276744
85	0x3dc9d979	0.09855933
86	0x3d66aced	0.05631726
87	0x3c7adeb0	0.015311882
88	0xbe70690c	-0.23477572
89	0xbde48546	-0.111582324
90	0xbc7e3524	-0.015515599
91	0xbe7d2ad6	-0.24723372
92	0xbce5ecc5	-0.028067002
93	0x3d81ddb9	0.06341118
94	0xbced8a90	-0.028996736
95	0x3dd8d86a	0.10588153
96	0x3da0c896	0.07850759
97	0x3dd7c236	0.1053509
98	0xbc0a1dfd	-0.008430001
99	0x3dacd8b7	0.084397726
100	0x3df4c6f8	0.11952013
101	0xbd7dff97	-0.062011328
102	0xbd83c108	-0.06433302
103	0x3df8316d	0.12118802
104	0x3e0f0034	0.13964921
105	0xbcff19bd	-0.031140203
106	0xbe838c55	-0.25693002
107	0xbd4756cd	-0.048666764
108	0xbd8b2b04	-0.06795314
109	0xbe390799	-0.18069305
110	0x3d6a1ff1	0.057159368
111	0x3df44e2e	0.11928974
112	0x3e7681de	0.24072978
113	0x3d2c5657	0.042074528
114	0x3bf02a57	0.007329266
115	0xbdad8e00	-0.0847435
116	0xbdfef342	-0.124487415
117	0xbd803210	-0.06259549
118	0x3d456fd4	0.04820235
119	0xbdb41ae3	-0.08794191
120	0xbe1d92aa	-0.15387979
121	0x3e0e8334	0.13917238
122	0x3e55e982	0.20889857
123	0xbdb9bfcf	-0.09069788
124	0x3d9ca339	0.0764832
125	0xbd58bb54	-0.052913025
126	0xbc949893	-0.01813916
127	0xbe213349	-0.1574222
128	0x3df083fc	0.11743924
129	0x3de3c52c	0.11121592
130	0xbe4953fb	-0.19660942
131	0x3dd53f2b	0.10412439
132	0xbad828e8	-0.0016491683
133	0x3d51467d	0.051092613
134	0x3d6a4226	0.05719199
135	0x3d944236	0.07239191
136	0x3e2ee573	0.17079715
137	0x3d9e3f65	0.07726935
138	0xbbf06ca8	-0.0073371716
139	0xbd3da509	-0.046299968
140	0x3e02a911	0.12759806
141	0xbd5b35f5	-0.053518254
142	0xbe5a527b	-0.21320526
143	0xbe085a27	-0.1331564
144	0x3c30fc10	0.010802284
145	0xbcbe9d6e	-0.023268428
146	0x3d3ac2be	0.045595877
147	0x3cb6c511	0.022310765
148	0xbd06c285	-0.032900352
149	0x3d147a3e	0.03624939
150	0xb8437fdc	-4.66107e-05
151	0x3d329ab1	0.043604556
152	0xbc8223ec	-0.01588627
153	0xbdac2d43	-0.084070705
154	0x3e4b2695	0.19838937
155	0x3c88fd48	0.016722336
156	0xbe1c7e24	-0.15282494
157	0xbe84a8e5	-0.25910106
158	0xbd4f091c	-0.050545797
159	0x3d14c005	0.036315937
160	0x3e30ee3e	0.17278382
161	0xbc350b7f	-0.011050104
162	0x3e5bd788	0.21468937
163	0x3e3a46f3	0.18191127
164	0xbe2a293e	-0.16617295
165	0x3e151958	0.14560449
166	0x3c5dee02	0.013545515
167	0xbdbd9208	-0.09256369
168	0x3ef2ef12	0.4744802
169	0x3ea84525	0.32865253
170	0x3e235670	0.15950942
171	0xbd726300	-0.059176445
172	0x3dd27941	0.102770336
173	0xbdce0308	-0.10059172
174	0xbe5e3336	-0.21699223
175	0xbc3c779c	-0.0115031265
176	0x3e90350e	0.28165478
177	0xbe7032b8	-0.23456848
178	0x3e30465e	0.17214343
179	0x3deb03ad	0.114753105
180	0x3d343a98	0.04400119
181	0xbc9dbfbf	-0.01925647
182	0x3c891e79	0.016738163
183	0xbc409df3	-0.011756408
184	0xbe06297e	-0.13101766
185	0x3ec91666	0.392749
186	0x3c74f3da	0.014950717
187	0xbc998e68	-0.018744662
188	0xbde20e35	-0.11037866
189	0x3baf7bfb	0.005355356
190	0xbd8d2e9b	-0.06893655
191	0x3c08ed25	0.008357321
192	0xbe9d086f	-0.30670497
193	0xbcd8c6b6	-0.02646194
194	0x3d98901d	0.074493624
195	0xbd372226	-0.0447103
196	0x3e98dbfc	0.29855335
197	0x3d17757c	0.036977276
198	0xbdc1ad01	-0.09456826
199	0xbd400c94	-0.046886995
200	0xbc2e16ec	-0.010625582
201	0x3e6eb687	0.23311816
202	0xbdcbc2ae	-0.099492416
203	0xbd884667	-0.06654053
204	0xbdbd3679	-0.092389055
205	0xbe5f940c	-0.21833819
206	0x3e2f8d0d	0.1714365
207	0x3d178341	0.036990408
208	0x3deb5860	0.114914656
209	0xbddecf57	-0.10879391
210	0x3e184faf	0.14874147
211	0xbda83b71	-0.082144625
212	0xbe6684d7	-0.22511612
213	0x3d5e5729	0.05428234
214	0x3d147ca2	0.03625167
215	0x3d181245	0.0371268
216	0xbe8a0708	-0.2695849
217	0xbe210456	-0.1572431
218	0xbd0a4e34	-0.033765987
219	0xbda72bb1	-0.0816263
220	0x3c3b2df9	0.011424535
221	0xbc11774c	-0.00887854
222	0x3e372fdb	0.17889349
223	0x3e851845	0.2599508
224	0x3dc8dca0	0.09807706
225	0x3d2bcc34	0.04194279
226	0x3cf7029a	0.030152608
227	0xbcb6da9f	-0.022321044
228	0x3b01f04b	0.0019827064
229	0xbb60339d	-0.0034210451
230	0x3c789d00	0.0151741505
231	0xbce62ee8	-0.028098539
232	0x3ca526dd	0.020160133
233	0xbcb1b855	-0.021694342
234	0xbdafa9d8	-0.08577317
235	0xbcfa5106	-0.030556213
236	0x3cf24940	0.029575944
237	0x3da58928	0.08082801
238	0xbe35bc72	-0.17747667
239	0xbcd146c7	-0.025546445
240	0x3d66a83e	0.056312792
241	0xbdc41e30	-0.0957607
242	0x3d462b7f	0.048381325
243	0x3c0552b0	0.00813739
244	0x3cb26feb	0.021781882
245	0x3cd25868	0.025676921
246	0x3d71f554	0.059071854
247	0x3e8f854c	0.28031385
248	0xbd7adfa8	-0.06124845
249	0xba91daf6	-0.0011127878
250	0xbdf65c7d	-0.120293595
251	0xbe6b5e9b	-0.22985308
252	0x3e4e09f5	0.20120986
253	0x3c4f3abc	0.012648281
254	0x3dc9a3ae	0.098456725
255	0x3bedba08	0.0072548427
